--- Starting trial: run-0
{'num_units': 128, 'dropout': 0.1, 'optimizer': 'adam'}
Model: "sequential"
_________________________________________________________________
Layer (type)                 Output Shape              Param #   
=================================================================
conv2d (Conv2D)              (None, 28, 28, 32)        832       
_________________________________________________________________
max_pooling2d (MaxPooling2D) (None, 14, 14, 32)        0         
_________________________________________________________________
conv2d_1 (Conv2D)            (None, 14, 14, 64)        51264     
_________________________________________________________________
max_pooling2d_1 (MaxPooling2 (None, 7, 7, 64)          0         
_________________________________________________________________
flatten (Flatten)            (None, 3136)              0         
_________________________________________________________________
dense (Dense)                (None, 128)               401536    
_________________________________________________________________
dropout (Dropout)            (None, 128)               0         
_________________________________________________________________
dense_1 (Dense)              (None, 10)                1290      
=================================================================
Total params: 454,922
Trainable params: 454,922
Non-trainable params: 0
_________________________________________________________________
None
Train on 31500 samples
31500/31500 - 45s - loss: 0.1679 - accuracy: 0.9470
10500/1 - 4s - loss: 0.0456 - accuracy: 0.9787
Train on 31500 samples
31500/31500 - 50s - loss: 0.0547 - accuracy: 0.9830
…
10500/1 - 9s - loss: 0.0818 - accuracy: 0.9542
Train on 31500 samples
31500/31500 - 42s - loss: 0.1380 - accuracy: 0.9571
10500/1 - 4s - loss: 0.4889 - accuracy: 0.9514
Train on 31500 samples
31500/31500 - 43s - loss: 0.1179 - accuracy: 0.9649
10500/1 - 4s - loss: 0.0424 - accuracy: 0.9764
--- Starting trial: run-4
{'num_units': 256, 'dropout': 0.1, 'optimizer': 'adam'}
Model: "sequential_4"
_________________________________________________________________
Layer (type)                 Output Shape              Param #   
=================================================================
conv2d_8 (Conv2D)            (None, 28, 28, 32)        832       
_________________________________________________________________
max_pooling2d_8 (MaxPooling2 (None, 14, 14, 32)        0         
_________________________________________________________________
conv2d_9 (Conv2D)            (None, 14, 14, 64)        51264     
_________________________________________________________________
max_pooling2d_9 (MaxPooling2 (None, 7, 7, 64)          0         
_________________________________________________________________
flatten_4 (Flatten)          (None, 3136)              0         
_________________________________________________________________
dense_8 (Dense)              (None, 256)               803072    
_________________________________________________________________
dropout_4 (Dropout)          (None, 256)               0         
_________________________________________________________________
dense_9 (Dense)              (None, 10)                2570      
=================================================================
Total params: 857,738
Trainable params: 857,738
Non-trainable params: 0
_________________________________________________________________
None
Train on 31500 samples
31500/31500 - 41s - loss: 0.1518 - accuracy: 0.9530
10500/1 - 4s - loss: 0.0406 - accuracy: 0.9787
Train on 31500 samples
31500/31500 - 41s - loss: 0.0514 - accuracy: 0.9841
…
10500/1 - 4s - loss: 0.0909 - accuracy: 0.9594
Train on 31500 samples
31500/31500 - 41s - loss: 0.1240 - accuracy: 0.9618
10500/1 - 4s - loss: 0.4249 - accuracy: 0.9677
Train on 31500 samples
31500/31500 - 41s - loss: 0.1034 - accuracy: 0.9679
10500/1 - 4s - loss: 0.0407 - accuracy: 0.9770
--- Starting trial: run-8
{'num_units': 512, 'dropout': 0.1, 'optimizer': 'adam'}
Model: "sequential_8"
_________________________________________________________________
Layer (type)                 Output Shape              Param #   
=================================================================
conv2d_16 (Conv2D)           (None, 28, 28, 32)        832       
_________________________________________________________________
max_pooling2d_16 (MaxPooling (None, 14, 14, 32)        0         
_________________________________________________________________
conv2d_17 (Conv2D)           (None, 14, 14, 64)        51264     
_________________________________________________________________
max_pooling2d_17 (MaxPooling (None, 7, 7, 64)          0         
_________________________________________________________________
flatten_8 (Flatten)          (None, 3136)              0         
_________________________________________________________________
dense_16 (Dense)             (None, 512)               1606144   
_________________________________________________________________
dropout_8 (Dropout)          (None, 512)               0         
_________________________________________________________________
dense_17 (Dense)             (None, 10)                5130      
=================================================================
Total params: 1,663,370
Trainable params: 1,663,370
Non-trainable params: 0
_________________________________________________________________
None
Train on 31500 samples
31500/31500 - 46s - loss: 0.1428 - accuracy: 0.9564
10500/1 - 6s - loss: 0.0351 - accuracy: 0.9791
Train on 31500 samples
31500/31500 - 45s - loss: 0.0470 - accuracy: 0.9860
…
